…
Epoch 00294: val_loss did not improve
Epoch 00295: val_loss did not improve
Epoch 00296: val_loss did not improve
Epoch 00297: val_loss did not improve
Epoch 00298: val_loss did not improve
Epoch 00299: val_loss did not improve
loss: 0.00061825
0.010501 (+/- 0.0161)
____________________________________________________________________________________________________
Layer (type)                     Output Shape          Param #     Connected to                     
====================================================================================================
input_19 (InputLayer)            (None, 50, 50, 1)     0                                            
____________________________________________________________________________________________________
conv2d_19 (Conv2D)               (None, 50, 50, 16)    416         input_19[0][0]                   
____________________________________________________________________________________________________
max_pooling2d_19 (MaxPooling2D)  (None, 25, 25, 16)    0           conv2d_19[0][0]                  
____________________________________________________________________________________________________
dropout_46 (Dropout)             (None, 25, 25, 16)    0           max_pooling2d_19[0][0]           
____________________________________________________________________________________________________
conv2d_20 (Conv2D)               (None, 25, 25, 32)    12832       dropout_46[0][0]                 
____________________________________________________________________________________________________
max_pooling2d_20 (MaxPooling2D)  (None, 12, 12, 32)    0           conv2d_20[0][0]                  
____________________________________________________________________________________________________
dropout_47 (Dropout)             (None, 12, 12, 32)    0           max_pooling2d_20[0][0]           
____________________________________________________________________________________________________
flatten_10 (Flatten)             (None, 4608)          0           dropout_47[0][0]                 
____________________________________________________________________________________________________
dense_37 (Dense)                 (None, 192)           884928      flatten_10[0][0]                 
____________________________________________________________________________________________________
dropout_48 (Dropout)             (None, 192)           0           dense_37[0][0]                   
____________________________________________________________________________________________________
input_20 (InputLayer)            (None, 231)           0                                            
____________________________________________________________________________________________________
concatenate_10 (Concatenate)     (None, 423)           0           dropout_48[0][0]                 
                                                                   input_20[0][0]                   
____________________________________________________________________________________________________
dense_38 (Dense)                 (None, 200)           84800       concatenate_10[0][0]             
____________________________________________________________________________________________________
dropout_49 (Dropout)             (None, 200)           0           dense_38[0][0]                   
____________________________________________________________________________________________________
dense_39 (Dense)                 (None, 100)           20100       dropout_49[0][0]                 
____________________________________________________________________________________________________
dropout_50 (Dropout)             (None, 100)           0           dense_39[0][0]                   
____________________________________________________________________________________________________
dense_40 (Dense)                 (None, 99)            9999        dropout_50[0][0]                 
====================================================================================================
Total params: 1,013,075
Trainable params: 1,013,075
Non-trainable params: 0
____________________________________________________________________________________________________
None
Saving to file submissions/submissionEpoch300Batch20Softmax.csv ...
Finished.
