Using TensorFlow backend.
Loading images...
Finished.
Grabbing more features...
Finished.
Applying PCA...
Finished.
____________________________________________________________________________________________________
Layer (type)                     Output Shape          Param #     Connected to                     
====================================================================================================
input_1 (InputLayer)             (None, 50, 50, 1)     0                                            
____________________________________________________________________________________________________
conv2d_1 (Conv2D)                (None, 50, 50, 32)    832         input_1[0][0]                    
____________________________________________________________________________________________________
max_pooling2d_1 (MaxPooling2D)   (None, 10, 10, 32)    0           conv2d_1[0][0]                   
____________________________________________________________________________________________________
dropout_1 (Dropout)              (None, 10, 10, 32)    0           max_pooling2d_1[0][0]            
____________________________________________________________________________________________________
flatten_1 (Flatten)              (None, 3200)          0           dropout_1[0][0]                  
____________________________________________________________________________________________________
dense_1 (Dense)                  (None, 192)           614592      flatten_1[0][0]                  
____________________________________________________________________________________________________
dropout_2 (Dropout)              (None, 192)           0           dense_1[0][0]                    
____________________________________________________________________________________________________
input_2 (InputLayer)             (None, 228)           0                                            
____________________________________________________________________________________________________
concatenate_1 (Concatenate)      (None, 420)           0           dropout_2[0][0]                  
                                                                   input_2[0][0]                    
____________________________________________________________________________________________________
dense_2 (Dense)                  (None, 500)           210500      concatenate_1[0][0]              
____________________________________________________________________________________________________
dropout_3 (Dropout)              (None, 500)           0           dense_2[0][0]                    
____________________________________________________________________________________________________
dense_3 (Dense)                  (None, 250)           125250      dropout_3[0][0]                  
____________________________________________________________________________________________________
dropout_4 (Dropout)              (None, 250)           0           dense_3[0][0]                    
____________________________________________________________________________________________________
dense_4 (Dense)                  (None, 99)            24849       dropout_4[0][0]                  
====================================================================================================
Total params: 976,023
Trainable params: 976,023
Non-trainable params: 0
____________________________________________________________________________________________________
None
Using the combined network fit.
2018-07-27 14:08:48.956441: W tensorflow/core/platform/cpu_feature_guard.cc:45] The TensorFlow library wasn't compiled to use SSE4.1 instructions, but these are available on your machine and could speed up CPU computations.
…
