Using TensorFlow backend.
Loading images...
Finished.
Grabbing more features...
Finished.
Applying PCA...
Finished.
____________________________________________________________________________________________________
Layer (type)                     Output Shape          Param #     Connected to                     
====================================================================================================
input_1 (InputLayer)             (None, 50, 50, 1)     0                                            
____________________________________________________________________________________________________
conv2d_1 (Conv2D)                (None, 50, 50, 32)    832         input_1[0][0]                    
____________________________________________________________________________________________________
max_pooling2d_1 (MaxPooling2D)   (None, 5, 5, 32)      0           conv2d_1[0][0]                   
____________________________________________________________________________________________________
dropout_1 (Dropout)              (None, 5, 5, 32)      0           max_pooling2d_1[0][0]            
____________________________________________________________________________________________________
conv2d_2 (Conv2D)                (None, 5, 5, 8)       6408        dropout_1[0][0]                  
____________________________________________________________________________________________________
max_pooling2d_2 (MaxPooling2D)   (None, 1, 1, 8)       0           conv2d_2[0][0]                   
____________________________________________________________________________________________________
dropout_2 (Dropout)              (None, 1, 1, 8)       0           max_pooling2d_2[0][0]            
____________________________________________________________________________________________________
flatten_1 (Flatten)              (None, 8)             0           dropout_2[0][0]                  
____________________________________________________________________________________________________
dense_1 (Dense)                  (None, 320)           2880        flatten_1[0][0]                  
____________________________________________________________________________________________________
dropout_3 (Dropout)              (None, 320)           0           dense_1[0][0]                    
____________________________________________________________________________________________________
input_2 (InputLayer)             (None, 698)           0                                            
____________________________________________________________________________________________________
concatenate_1 (Concatenate)      (None, 1018)          0           dropout_3[0][0]                  
                                                                   input_2[0][0]                    
____________________________________________________________________________________________________
dense_2 (Dense)                  (None, 1000)          1019000     concatenate_1[0][0]              
____________________________________________________________________________________________________
dropout_4 (Dropout)              (None, 1000)          0           dense_2[0][0]                    
____________________________________________________________________________________________________
dense_3 (Dense)                  (None, 800)           800800      dropout_4[0][0]                  
____________________________________________________________________________________________________
dropout_5 (Dropout)              (None, 800)           0           dense_3[0][0]                    
____________________________________________________________________________________________________
dense_4 (Dense)                  (None, 600)           480600      dropout_5[0][0]                  
____________________________________________________________________________________________________
dropout_6 (Dropout)              (None, 600)           0           dense_4[0][0]                    
____________________________________________________________________________________________________
dense_5 (Dense)                  (None, 99)            59499       dropout_6[0][0]                  
====================================================================================================
Total params: 2,370,019
Trainable params: 2,370,019
Non-trainable params: 0
____________________________________________________________________________________________________
None
Using the combined network fit.
2018-07-25 16:16:12.804984: W tensorflow/core/platform/cpu_feature_guard.cc:45] The TensorFlow library wasn't compiled to use SSE4.1 instructions, but these are available on your machine and could speed up CPU computations.
…
