…
Epoch 00567: early stopping
loss: 3.829e-05
Training...
Using the neural network fit.
Epoch 00350: early stopping
loss: 0.0060658
Training...
Using the neural network fit.
Epoch 00382: early stopping
loss: 0.024386
Training...
Using the neural network fit.
loss: 0.00015649
Training...
Using the neural network fit.
Epoch 00526: early stopping
loss: 1.4828e-05
0.012638 (+/- 0.0249)
_________________________________________________________________
Layer (type)                 Output Shape              Param #   
=================================================================
dense_37 (Dense)             (None, 400)               92800     
_________________________________________________________________
dropout_28 (Dropout)         (None, 400)               0         
_________________________________________________________________
dense_38 (Dense)             (None, 280)               112280    
_________________________________________________________________
dropout_29 (Dropout)         (None, 280)               0         
_________________________________________________________________
dense_39 (Dense)             (None, 140)               39340     
_________________________________________________________________
dropout_30 (Dropout)         (None, 140)               0         
_________________________________________________________________
dense_40 (Dense)             (None, 99)                13959     
=================================================================
Total params: 258,379
Trainable params: 258,379
Non-trainable params: 0
_________________________________________________________________
None
Saving to file submissions/submissionEpoch602Batch20Softmax.csv ...
Finished.
