Using TensorFlow backend.
Loading images...
Finished.
_________________________________________________________________
Layer (type)                 Output Shape              Param #   
=================================================================
dense_1 (Dense)              (None, 400)               77200     
_________________________________________________________________
dropout_1 (Dropout)          (None, 400)               0         
_________________________________________________________________
dense_2 (Dense)              (None, 280)               112280    
_________________________________________________________________
dropout_2 (Dropout)          (None, 280)               0         
_________________________________________________________________
dense_3 (Dense)              (None, 140)               39340     
_________________________________________________________________
dropout_3 (Dropout)          (None, 140)               0         
_________________________________________________________________
dense_4 (Dense)              (None, 99)                13959     
=================================================================
Total params: 242,779
Trainable params: 242,779
Non-trainable params: 0
_________________________________________________________________
None
2018-07-13 14:34:39.028686: W tensorflow/core/platform/cpu_feature_guard.cc:45] The TensorFlow library wasn't compiled to use SSE4.1 instructions, but these are available on your machine and could speed up CPU computations.
…
