Using TensorFlow backend.
_________________________________________________________________
Layer (type)                 Output Shape              Param #   
=================================================================
dense_1 (Dense)              (None, 1000)              193000    
_________________________________________________________________
dropout_1 (Dropout)          (None, 1000)              0         
_________________________________________________________________
dense_2 (Dense)              (None, 1000)              1001000   
_________________________________________________________________
dropout_2 (Dropout)          (None, 1000)              0         
_________________________________________________________________
dense_3 (Dense)              (None, 1000)              1001000   
_________________________________________________________________
dropout_3 (Dropout)          (None, 1000)              0         
_________________________________________________________________
dense_4 (Dense)              (None, 99)                99099     
=================================================================
Total params: 2,294,099
Trainable params: 2,294,099
Non-trainable params: 0
_________________________________________________________________
None
Train on 891 samples, validate on 99 samples
Epoch 1/1000
2018-07-11 14:32:34.479868: W tensorflow/core/platform/cpu_feature_guard.cc:45] The TensorFlow library wasn't compiled to use SSE4.1 instructions, but these are available on your machine and could speed up CPU computations.
…
