Using TensorFlow backend.
Loading images...
Finished.
____________________________________________________________________________________________________
Layer (type)                     Output Shape          Param #     Connected to                     
====================================================================================================
input_1 (InputLayer)             (None, 50, 50, 1)     0                                            
____________________________________________________________________________________________________
conv2d_1 (Conv2D)                (None, 50, 50, 8)     208         input_1[0][0]                    
____________________________________________________________________________________________________
max_pooling2d_1 (MaxPooling2D)   (None, 2, 2, 8)       0           conv2d_1[0][0]                   
____________________________________________________________________________________________________
dropout_1 (Dropout)              (None, 2, 2, 8)       0           max_pooling2d_1[0][0]            
____________________________________________________________________________________________________
flatten_1 (Flatten)              (None, 32)            0           dropout_1[0][0]                  
____________________________________________________________________________________________________
dense_1 (Dense)                  (None, 192)           6336        flatten_1[0][0]                  
____________________________________________________________________________________________________
dropout_2 (Dropout)              (None, 192)           0           dense_1[0][0]                    
____________________________________________________________________________________________________
input_2 (InputLayer)             (None, 192)           0                                            
____________________________________________________________________________________________________
concatenate_1 (Concatenate)      (None, 384)           0           dropout_2[0][0]                  
                                                                   input_2[0][0]                    
____________________________________________________________________________________________________
dense_2 (Dense)                  (None, 400)           154000      concatenate_1[0][0]              
____________________________________________________________________________________________________
dropout_3 (Dropout)              (None, 400)           0           dense_2[0][0]                    
____________________________________________________________________________________________________
dense_3 (Dense)                  (None, 280)           112280      dropout_3[0][0]                  
____________________________________________________________________________________________________
dropout_4 (Dropout)              (None, 280)           0           dense_3[0][0]                    
____________________________________________________________________________________________________
dense_4 (Dense)                  (None, 140)           39340       dropout_4[0][0]                  
____________________________________________________________________________________________________
dropout_5 (Dropout)              (None, 140)           0           dense_4[0][0]                    
____________________________________________________________________________________________________
dense_5 (Dense)                  (None, 99)            13959       dropout_5[0][0]                  
====================================================================================================
Total params: 326,123
Trainable params: 326,123
Non-trainable params: 0
____________________________________________________________________________________________________
None
2018-07-18 17:37:07.378374: W tensorflow/core/platform/cpu_feature_guard.cc:45] The TensorFlow library wasn't compiled to use SSE4.1 instructions, but these are available on your machine and could speed up CPU computations.
…
