Using TensorFlow backend.
Loading images...
Finished.
_________________________________________________________________
Layer (type)                 Output Shape              Param #   
=================================================================
dense_1 (Dense)              (None, 800)               154400    
_________________________________________________________________
dropout_1 (Dropout)          (None, 800)               0         
_________________________________________________________________
dense_2 (Dense)              (None, 560)               448560    
_________________________________________________________________
dropout_2 (Dropout)          (None, 560)               0         
_________________________________________________________________
dense_3 (Dense)              (None, 280)               157080    
_________________________________________________________________
dropout_3 (Dropout)          (None, 280)               0         
_________________________________________________________________
dense_4 (Dense)              (None, 99)                27819     
=================================================================
Total params: 787,859
Trainable params: 787,859
Non-trainable params: 0
_________________________________________________________________
None
2018-07-16 17:01:13.718921: W tensorflow/core/platform/cpu_feature_guard.cc:45] The TensorFlow library wasn't compiled to use SSE4.1 instructions, but these are available on your machine and could speed up CPU computations.
…
