Using TensorFlow backend.
Loading images...
Finished.
____________________________________________________________________________________________________
Layer (type)                     Output Shape          Param #     Connected to                     
====================================================================================================
encoder_input (InputLayer)       (None, 50, 50, 1)     0                                            
____________________________________________________________________________________________________
conv2d_1 (Conv2D)                (None, 50, 50, 1)     26          encoder_input[0][0]              
____________________________________________________________________________________________________
dropout_1 (Dropout)              (None, 50, 50, 1)     0           conv2d_1[0][0]                   
____________________________________________________________________________________________________
conv2d_2 (Conv2D)                (None, 50, 50, 16)    416         dropout_1[0][0]                  
____________________________________________________________________________________________________
dropout_2 (Dropout)              (None, 50, 50, 16)    0           conv2d_2[0][0]                   
____________________________________________________________________________________________________
conv2d_3 (Conv2D)                (None, 50, 50, 8)     3208        dropout_2[0][0]                  
____________________________________________________________________________________________________
flatten_1 (Flatten)              (None, 20000)         0           conv2d_3[0][0]                   
____________________________________________________________________________________________________
dense_1 (Dense)                  (None, 192)           3840192     flatten_1[0][0]                  
____________________________________________________________________________________________________
z_mean (Dense)                   (None, 2)             386         dense_1[0][0]                    
____________________________________________________________________________________________________
z_log_var (Dense)                (None, 2)             386         dense_1[0][0]                    
____________________________________________________________________________________________________
z (Lambda)                       (None, 2)             0           z_mean[0][0]                     
                                                                   z_log_var[0][0]                  
====================================================================================================
Total params: 3,844,614
Trainable params: 3,844,614
Non-trainable params: 0
____________________________________________________________________________________________________
_________________________________________________________________
Layer (type)                 Output Shape              Param #   
=================================================================
z_sampling (InputLayer)      (None, 2)                 0         
_________________________________________________________________
dense_2 (Dense)              (None, 192)               576       
_________________________________________________________________
dense_3 (Dense)              (None, 20000)             3860000   
_________________________________________________________________
reshape_1 (Reshape)          (None, 50, 50, 8)         0         
_________________________________________________________________
conv2d_transpose_1 (Conv2DTr (None, 50, 50, 8)         1608      
_________________________________________________________________
dropout_3 (Dropout)          (None, 50, 50, 8)         0         
_________________________________________________________________
conv2d_transpose_2 (Conv2DTr (None, 50, 50, 16)        3216      
_________________________________________________________________
dropout_4 (Dropout)          (None, 50, 50, 16)        0         
_________________________________________________________________
conv2d_transpose_3 (Conv2DTr (None, 50, 50, 1)         401       
=================================================================
Total params: 3,865,801
Trainable params: 3,865,801
Non-trainable params: 0
_________________________________________________________________
VAE_modified_CNN.py:264: UserWarning: Output "decoder" missing from loss dictionary. We assume this was done on purpose, and we will not be expecting any data to be passed to "decoder" during training.
  vae.compile(optimizer='adam', loss = None)
_________________________________________________________________
Layer (type)                 Output Shape              Param #   
=================================================================
encoder_input (InputLayer)   (None, 50, 50, 1)         0         
_________________________________________________________________
encoder (Model)              [(None, 2), (None, 2), (N 3844614   
_________________________________________________________________
decoder (Model)              (None, 50, 50, 1)         3865801   
=================================================================
Total params: 7,710,415
Trainable params: 7,710,415
Non-trainable params: 0
_________________________________________________________________
Training model...
2018-07-27 12:42:57.362641: W tensorflow/core/platform/cpu_feature_guard.cc:45] The TensorFlow library wasn't compiled to use SSE4.1 instructions, but these are available on your machine and could speed up CPU computations.
…
