Using TensorFlow backend.
Loading images...
Finished.
____________________________________________________________________________________________________
Layer (type)                     Output Shape          Param #     Connected to                     
====================================================================================================
encoder_input (InputLayer)       (None, 10000)         0                                            
____________________________________________________________________________________________________
dense_1 (Dense)                  (None, 512)           5120512     encoder_input[0][0]              
____________________________________________________________________________________________________
dropout_1 (Dropout)              (None, 512)           0           dense_1[0][0]                    
____________________________________________________________________________________________________
dense_2 (Dense)                  (None, 320)           164160      dropout_1[0][0]                  
____________________________________________________________________________________________________
dropout_2 (Dropout)              (None, 320)           0           dense_2[0][0]                    
____________________________________________________________________________________________________
dense_3 (Dense)                  (None, 240)           77040       dropout_2[0][0]                  
____________________________________________________________________________________________________
dropout_3 (Dropout)              (None, 240)           0           dense_3[0][0]                    
____________________________________________________________________________________________________
dense_4 (Dense)                  (None, 192)           46272       dropout_3[0][0]                  
____________________________________________________________________________________________________
z_mean (Dense)                   (None, 2)             386         dense_4[0][0]                    
____________________________________________________________________________________________________
z_log_var (Dense)                (None, 2)             386         dense_4[0][0]                    
____________________________________________________________________________________________________
z (Lambda)                       (None, 2)             0           z_mean[0][0]                     
                                                                   z_log_var[0][0]                  
====================================================================================================
Total params: 5,408,756
Trainable params: 5,408,756
Non-trainable params: 0
____________________________________________________________________________________________________
_________________________________________________________________
Layer (type)                 Output Shape              Param #   
=================================================================
z_sampling (InputLayer)      (None, 2)                 0         
_________________________________________________________________
dense_5 (Dense)              (None, 192)               576       
_________________________________________________________________
dropout_4 (Dropout)          (None, 192)               0         
_________________________________________________________________
dense_6 (Dense)              (None, 240)               46320     
_________________________________________________________________
dropout_5 (Dropout)          (None, 240)               0         
_________________________________________________________________
dense_7 (Dense)              (None, 320)               77120     
_________________________________________________________________
dropout_6 (Dropout)          (None, 320)               0         
_________________________________________________________________
dense_8 (Dense)              (None, 512)               164352    
_________________________________________________________________
dense_9 (Dense)              (None, 10000)             5130000   
=================================================================
Total params: 5,418,368
Trainable params: 5,418,368
Non-trainable params: 0
_________________________________________________________________
VAE_modified.py:351: UserWarning: Output "decoder" missing from loss dictionary. We assume this was done on purpose, and we will not be expecting any data to be passed to "decoder" during training.
  vae.compile(optimizer='adam', loss = None)
_________________________________________________________________
Layer (type)                 Output Shape              Param #   
=================================================================
encoder_input (InputLayer)   (None, 10000)             0         
_________________________________________________________________
encoder (Model)              [(None, 2), (None, 2), (N 5408756   
_________________________________________________________________
decoder (Model)              (None, 10000)             5418368   
=================================================================
Total params: 10,827,124
Trainable params: 10,827,124
Non-trainable params: 0
_________________________________________________________________
Training model...
2018-07-23 17:22:15.879618: W tensorflow/core/platform/cpu_feature_guard.cc:45] The TensorFlow library wasn't compiled to use SSE4.1 instructions, but these are available on your machine and could speed up CPU computations.
…
